Finalproject/model/mnist_cnn_keras.tflite (tflite, 898736 bytes, 12 tensors)

sequential/dense_1/BiasAdd/ReadVariableOp/resource f4 [10]
000000 43 e9 df 3a 6c bd 24 bc 58 e2 c7 ba 5c c9 43 3c
       0.0017083067 -0.010054927 -0.0015249951 0.011949863
000010 9c 9f a9 bb 08 0d 11 3a c7 c1 87 bc 15 f1 d2 3a
       -0.0051764976 0.0005533253 -0.016571892 0.0016093577
000020 8b 39 8a 3b ee 39 2c 3c
       0.0042182854 0.010511858

sequential/conv2d/Conv2D f4 [32, 5, 5, 1]
000000 69 9a 3b be f1 e8 e8 be 7a a7 6d bc 58 d3 16 3f
       -0.18320622 -0.4549022 -0.014505262 0.58916235
000010 08 15 0b be 99 44 94 bf 92 73 58 bf 4e 98 93 bf
       -0.13582242 -1.1583434 -0.84551346 -1.1530855
000020 00 06 1e 3e aa bb 31 bf f3 57 a1 3f d4 5f 84 3e
       0.15431976 -0.6942698 1.2604965 0.2585436
000030 be 99 93 3e 57 05 10 bf bf ff 27 3f e2 f6 e7 3f
       0.28828233 -0.5625815 0.6562461 1.8122218
000040 bf a5 90 3f 71 12 b8 3f 31 8a 92 3f 6c 34 8d be
       1.1300582 1.4380628 1.1448423 -0.27579057
000050 fd 7d 5c bf 63 fa 2a bf 1b b5 8f bf a0 6b 82 bf
       -0.8612974 -0.6678831 -1.1227144 -1.0189095
000060 4a 10 6e 3f 72 38 51 3f 08 2a 0f 3f 50 f6 d1 be
       0.92993605 0.81726754 0.5592351 -0.41008234
000070 ba 68 22 3e 5b 97 13 bf c0 36 3c 3f 2d 37 99 bd
       0.15860263 -0.57652825 0.7352104 -0.07481227
000080 62 88 24 3f 7e 1c 0a 3d 96 a2 1e bf e6 3a e4 3e
       0.64270604 0.03371858 -0.61966836 0.44576186
000090 81 52 4e 3f 5f 46 07 3f f2 20 2d 3f 68 14 49 bf
       0.8059464 0.5284175 0.67628396 -0.7854676
0000a0 09 8d 01 3f c8 40 fb be c1 17 40 be f5 f7 1a 3f
       0.5060583 -0.49072862 -0.18759061 0.605346
0000b0 88 da 71 bf 0b 5d ba be 56 ca 1a 3e 9d 64 53 bf
       -0.9447408 -0.3639911 0.15116248 -0.825754
0000c0 73 5a dc 3e 20 10 e0 3e 6b c4 c0 be fb a0 37 bf
       0.43037757 0.43762302 -0.37649855 -0.7173001
0000d0 27 d1 21 3f e7 04 73 3f af 7e c0 bd b1 18 1b bf
       0.63209766 0.94929355 -0.09399163 -0.6058455
0000e0 57 a1 57 be b9 ed 0e bf c5 a3 36 bf 5e a5 0b bf
       -0.2105764 -0.55831486 -0.7134364 -0.54549205
0000f0 7b de 8c bf b7 9e bf bc 0a 35 1a bf 9d 1a 6d 3f
       -1.1005396 -0.02339111 -0.6023718 0.92618734
000100 37 d1 b5 bd 9d 33 3b bf 5c 91 30 3f 42 cf dd 3e
       -0.08877795 -0.7312563 0.689718 0.43322188
000110 18 d4 64 3f 49 17 15 3f 10 c1 3e bf 67 74 4c 3f
       0.8938613 0.58238655 -0.7451334 0.79865116
000120 1c fb 9e be 7b 25 a6 3c 74 76 b6 3e bb 1d 8f bf
       -0.31050956 0.020281544 0.35637248 -1.1180948
000130 2c 90 68 bf 68 81 51 bf 67 c2 62 3e 5c ec d2 3e
       -0.9084499 -0.81838083 0.22144471 0.41195953
000140 90 88 1e bf df 3e 38 3f f8 a4 72 3f a7 1f e5 be
       -0.6192713 0.71970934 0.9478297 -0.4475071
000150 a7 3c 90 3f fe 68 18 bf bd 20 4c be c6 56 e1 3e
       1.126851 -0.59535205 -0.19934364 0.44011515
000160 f7 0c a3 3e f4 28 35 3f 67 b6 e0 be 20 f5 9b 3d
       0.3184583 0.70765615 -0.43889162 0.07615113
000170 e2 3c d2 be d6 78 ac bd ef 50 dd 3d 87 ba bd be
       -0.41062075 -0.08421485 0.108064525 -0.37056372
000180 9f ff 0e 3f 40 b5 36 3f 47 2b 65 bf df 1e 11 3e
       0.55858797 0.71370316 -0.8951916 0.14171933
000190 de 66 7e be fd 58 e2 3d 1a a2 41 3d cc 0e 80 3f
       -0.24843928 0.110521294 0.047273733 1.0004516
0001a0 04 31 6e bf 6f ff 0c 3f 10 61 45 3e 69 b0 35 bf
       -0.9304354 0.5507726 0.19275308 -0.70972306
0001b0 65 ab 1a 3f 60 fb b0 bf cb ca 4c bf e3 d3 3b bf
       0.6041778 -1.3826714 -0.7999694 -0.7337019
0001c0 8e 39 87 bf 11 a4 71 bf 28 4f 5c 3f 8a 43 04 bf
       -1.0564439 -0.9439097 0.8605828 -0.51665556
0001d0 99 71 fe be 2f 42 59 3f 8d 26 7a bf 97 5c 99 3f
       -0.49696043 0.84866613 -0.97715074 1.1981381
0001e0 c8 78 b7 3e 43 7e e9 be 40 68 10 3f c2 f4 f5 bc
       0.35834336 -0.45604143 0.5640907 -0.030023936
0001f0 f6 4d 20 3f 62 65 fa be a7 b2 5d 3f 6c 6c 8c 3b
       0.6261896 -0.48905474 0.86600727 0.004285386
000200 3e f6 78 3f c4 42 d2 be f5 15 7a 3f 86 22 72 3e
       0.97250736 -0.41066563 0.97689754 0.23645982
000210 21 b2 4e 3f 00 71 4e 3f 58 57 9b bf ae 4b 99 3e
       0.80740553 0.80641174 -1.213603 0.29940552
000220 0b 1b 63 bf 53 f8 12 bf f2 c6 aa 3e 97 88 c4 3d
       -0.8871314 -0.5741016 0.33354908 0.09596365
000230 5b f3 bc be f7 f6 09 be c7 cc 3f 3e d6 76 b9 3e
       -0.36904415 -0.13473116 0.1873046 0.36223477
000240 d2 20 9b bf 47 89 67 3f db 20 90 3e bd f9 92 3f
       -1.2119391 0.90443844 0.28150067 1.1482464
000250 c0 38 34 3d da f1 cb be c6 00 30 3f 74 90 c2 3e
       0.043999434 -0.39832956 0.6875118 0.38000834
000260 c6 d2 1d be 1d b4 47 bf 98 c6 97 bf 0b f1 92 be
       -0.15412435 -0.78009206 -1.1857481 -0.28699526
000270 3e 01 50 bf 57 53 31 3f 32 ca 2d 3f 7a 73 a9 be
       -0.81251895 0.6926779 0.6788665 -0.33095914
000280 87 1a a4 3f 3a c4 15 bf d0 d7 82 3f f7 1e 8b 3f
       1.2820596 -0.5850254 1.0222111 1.0868825
000290 cc 44 81 3f 8c 0a 24 3f 3b 28 a4 3e 00 c8 53 3e
       1.009912 0.64078593 0.32061943 0.20681763
0002a0 9a f0 f4 3d c3 f0 11 bf 4e 11 27 bf 12 36 91 bf
       0.119599536 -0.57008 -0.6526078 -1.1344626
0002b0 9b 73 b9 be 93 02 71 3f 80 06 ac 3e c3 fb 38 bf
       -0.36221012 0.9414455 0.3359871 -0.7225916
0002c0 94 a7 81 3f 51 55 6a 3f 55 05 82 3f 18 46 d6 be
       1.0129266 0.9153643 1.0157877 -0.41850352
0002d0 91 98 21 bf a7 6e 70 bd dc 39 1b bf 61 1f f6 3e
       -0.6312342 -0.058699276 -0.6063516 0.48070815
0002e0 cb 97 d3 be 81 31 44 bf 24 34 0a 3f 5d 66 74 3f
       -0.41326746 -0.76638037 0.5398581 0.95468694
0002f0 6c 64 1a 3f d3 4a 40 bf 06 ed 8a 3e 57 b2 7b 3c
       0.6030948 -0.7511417 0.2713396 0.015362344
000300 6b 5c 14 bf af 02 43 be 07 2f 46 3f bc 63 5e bf
       -0.5795352 -0.19043992 0.7741551 -0.8687093
000310 74 05 81 bf 09 b4 3b bf 84 5e 79 bf b9 0d a5 be
       -1.0079789 -0.73321587 -0.97409844 -0.32237032
000320 41 9d 53 3f e9 b6 19 3f 84 1e ac 3e e9 84 76 be
       0.82661825 0.60044724 0.33617032 -0.24074139
000330 d3 00 ad 3e 90 16 78 bf 80 0b 87 3e 4d 9c d3 be
       0.3378969 -0.9690943 0.2637596 -0.41330186
000340 13 87 02 bf 24 a0 f7 3d 75 a9 e0 be e8 d3 14 3e
       -0.50987357 0.12091091 -0.43879285 0.14533961
000350 6f ce 20 bf 7b 85 1c bf 90 58 1d bf 75 fc 14 3f
       -0.6281499 -0.61141175 -0.6146326 0.5819772
000360 b2 04 ac be 2c c8 03 3f 69 27 17 bf cf 1b 68 be
       -0.33597332 0.51477313 -0.5904451 -0.22666858
000370 93 ad 0d 3f 8a 00 85 be e2 8b 7d bf 48 de 50 bf
       0.5534298 -0.25976974 -0.9904157 -0.81589174
000380 6a 7a 3c 3f 7d 24 4e 3e 01 f4 7b bf f7 33 40 3f
       0.7362429 0.20131107 -0.98419195 0.7507929
000390 af a6 d8 3e 0c 94 38 3f 76 80 7f bf f1 f9 09 3f
       0.4231467 0.721009 -0.9980539 0.53897005
0003a0 8d 07 bd be 29 62 8d be c3 25 84 be 1d 5c 6e be
       -0.36919823 -0.27613953 -0.2581006 -0.23277326
0003b0 8c d2 bd bf b8 d1 97 be 34 7d 24 bf 4e 9e 99 bf
       -1.4829879 -0.2965219 -0.64253545 -1.2001436
0003c0 18 ac f1 3e a6 40 53 3f 7c 10 98 be 01 d6 5c bf
       0.4720161 0.8252052 -0.29700077 -0.86264044
0003d0 d4 8c 9e 3e 1d c0 c2 be 41 bc 1e 3f 11 8f 76 bf
       0.30966818 -0.38037196 0.62006 -0.9631205
0003e0 0c 1a 8d 3f d7 da 88 3d 63 9c 60 bf 11 7f 8d 3d
       1.1023574 0.066823654 -0.8773863 0.069090016
0003f0 46 ab 8e 3f 42 e8 80 bf f6 d1 a2 bf 21 5c 8b 3f
       1.1146019 -1.007088 -1.2720325 1.088749

sequential/activation/Relu;sequential/batch_normalization/FusedBatchNormV3;sequential/conv2d/BiasAdd/ReadVariableOp/resource;sequential/conv2d/BiasAdd;sequential/conv2d_1/Conv2D;sequential/conv2d/Conv2D f4 [32]
000000 8a 57 94 bd 93 08 99 be 9a 7d 1a 3e d4 67 47 3d
       -0.07243259 -0.29889354 0.15086976 0.048683003
000010 2d 2c a0 3e 82 1e b1 be dc ff ae be 46 5f a2 3e
       0.31283703 -0.34593588 -0.3417958 0.31713313
000020 cd 83 b1 3e b0 94 d4 3e 8f 29 ca 3e c0 a9 27 bd
       0.3467087 0.4151969 0.39484832 -0.04093337
000030 6e 7e 8d 3e 33 8f 98 3d e8 d5 87 3d 90 cb d4 3e
       0.2763552 0.07449188 0.06632596 0.41561556
000040 e6 43 61 bd e0 cb f7 3e 67 8d 17 be 10 30 14 3e
       -0.054996394 0.48397732 -0.14800034 0.1447146
000050 50 c6 9a 3e cc 29 84 bd 26 60 fb be 47 52 d7 bc
       0.30229425 -0.064532846 -0.49096793 -0.02628435
000060 c8 bc 39 be 76 9b 54 bd 07 69 6c 3e 31 88 8c 3e
       -0.1813842 -0.05190607 0.2308694 0.27447656
000070 9f b9 0c 3e 8e aa f1 3e fa ae 14 3f c3 46 b5 bd
       0.13742684 0.47200435 0.58079493 -0.08851387

sequential/activation_1/Relu;sequential/batch_normalization_1/FusedBatchNormV3;sequential/conv2d_1/BiasAdd/ReadVariableOp/resource;sequential/conv2d_1/BiasAdd;sequential/conv2d_1/Conv2D f4 [32]
000000 79 42 02 40 24 a2 3f 3f 08 51 b6 be ea dc ad 3e
       2.0353072 0.7485678 -0.35608697 0.33957607
000010 bc 19 00 be 12 51 02 3f c4 cc 63 3e 20 1f dc 3f
       -0.12509817 0.50904953 0.2224608 1.7196999
000020 61 82 2a 3f 9b e9 32 40 72 eb 36 3f 47 91 4f 40
       0.6660519 2.7955081 0.7145301 3.243242
000030 b3 49 97 3f 0e ec 2b 3f f5 b1 66 3f 55 20 22 3f
       1.1819366 0.67157066 0.9011529 0.63330585
000040 da 1c a1 3f 68 96 b5 3f 40 32 ed 3e 09 ca d3 3d
       1.258693 1.4186525 0.463274 0.103412695
000050 26 52 bb 3f 35 a5 23 bf ae af 52 3f f2 8e 9c 3e
       1.4634445 -0.6392396 0.82299316 0.3057781
000060 58 bc 4e bf f9 7c 6d be b5 4f 1c bf 24 88 fe 3e
       -0.8075614 -0.23192205 -0.61059123 0.49713242
000070 89 1f 27 3e ad db 81 3f 20 42 09 3f bb 87 62 3f
       0.16320623 1.0145165 0.53616524 0.8848836

sequential/activation_2/Relu;sequential/batch_normalization_2/FusedBatchNormV3;sequential/conv2d_2/BiasAdd/ReadVariableOp/resource;sequential/conv2d_2/BiasAdd;sequential/conv2d_3/Conv2D;sequential/conv2d_2/Conv2D f4 [64]
000000 cd b3 96 3f 57 a3 82 bf c8 67 29 3e f5 b5 1b bd
       1.1773621 -1.0206097 0.16543496 -0.038015325
000010 56 d2 93 bc 43 a3 8a bb 7c dd af 3f 33 ef 82 3f
       -0.018044632 -0.004230888 1.3739467 1.0229248
000020 56 e9 83 3f 1f d0 a3 3f 09 00 3e 3f 4a 9a 00 bf
       1.0305583 1.2797889 0.74218804 -0.50235426
000030 b7 62 4d 3f 00 0e b2 bd 7b d9 71 bf df 2e 97 3e
       0.8022875 -0.086940765 -0.94472474 0.29527947
000040 96 97 4f 3e 3d 62 5f 3e 38 cc eb 3d 64 44 c5 bc
       0.20272669 0.21814819 0.11513561 -0.024080463
000050 94 be 8b 3f de 63 9b bf d2 6b ad be da 55 03 3e
       1.0917535 -1.2139852 -0.33871323 0.12825719
000060 17 2b 90 3f 21 ad cb 3e 4c 5c 22 3f 05 3c 46 3d
       1.126315 0.39780524 0.63422084 0.048397083
000070 27 37 d9 bd 17 ce fb bd be 03 88 3e 24 4e ff 3d
       -0.106062226 -0.12295168 0.26565355 0.12466076
000080 79 25 eb 3e f3 2f 88 be 5c 08 27 3e b9 59 0b bf
       0.45927027 -0.26599082 0.16311783 -0.5443378
000090 bc 42 db 3e ee ec 3e 3f 34 54 3a 3f 10 55 ce 3d
       0.42824352 0.74580276 0.72784734 0.10074818
0000a0 ed 5e 27 bf 3d 01 a2 3e b1 f0 e2 be 25 8a 4a 3f
       -0.6537922 0.3164157 -0.44324258 0.7911704
0000b0 8b 5c f7 3e 55 c4 bb bd 03 65 88 3d 9b e8 5a 3f
       0.48312792 -0.09168307 0.066598915 0.8551118
0000c0 29 c4 f8 3d 40 9a 2b 3f 68 fe c4 be 63 09 2a 3f
       0.121467896 0.6703224 -0.38475347 0.66420573
0000d0 8f 17 ba be 9d 40 1d 3f d7 f0 20 3f 27 d6 da 3e
       -0.363461 0.6142672 0.6286749 0.4274151
0000e0 9a f6 19 3f e6 c2 37 3d d7 e6 89 3f b3 63 51 be
       0.6014191 0.044863604 1.0773572 -0.20448188
0000f0 eb 7c ae 3f 61 4a f5 bd 07 a5 7d 3f 31 2b 9b 3f
       1.3631872 -0.11977077 0.99079937 1.2122556

sequential/activation_3/Relu;sequential/batch_normalization_3/FusedBatchNormV3;sequential/conv2d_3/BiasAdd/ReadVariableOp/resource;sequential/conv2d_3/BiasAdd;sequential/conv2d_3/Conv2D f4 [64]
000000 e4 ec 17 3f c9 1a 17 be df d6 e0 bf 0a c5 5d bd
       0.5934584 -0.14756311 -1.7565573 -0.05414299
000010 cd a6 a3 bf 1f 23 51 bf 76 17 e6 be 25 c5 af 3e
       -1.2785279 -0.81694216 -0.44939774 0.34330097
000020 0c 47 37 3f 40 93 0c 3f aa 39 da be 54 eb d3 3e
       0.71592784 0.54912186 -0.4262212 0.4139048
000030 b9 3f 04 3d f0 46 7c 3f bc 92 df 3e 1e 9d f9 be
       0.032287333 0.9854574 0.43666637 -0.48752683
000040 dc 3b 06 3f 27 b4 28 3f 97 78 92 3d b5 a7 2a be
       0.5243509 0.6589989 0.07151907 -0.16665538
000050 65 37 d2 be 51 58 96 3e 8f cf 93 3e 7c 81 37 3f
       -0.41057888 0.29364255 0.28869292 0.7168195
000060 95 70 61 3f ff 1f 90 3f e8 34 5b 3f 6a f1 fe 3e
       0.8806241 1.1259764 0.85627604 0.4979356
000070 61 0b 35 3f df 01 e0 be b5 fc 09 3f 4f ae 5e bc
       0.7072049 -0.43751428 0.53901225 -0.013591363
000080 e4 7c 95 3e 01 3c 55 3f 31 1f 01 3f d1 be 7d 3d
       0.29196846 0.83294684 0.5043822 0.061949555
000090 fa 15 88 be 6d 74 34 be 9b 5d 95 3e fe b9 3c 3f
       -0.26579267 -0.17622538 0.29172978 0.737213
0000a0 e3 ee 8f 3d 63 83 82 be f9 44 d3 3e c0 46 e3 be
       0.07027986 -0.25490865 0.4126356 -0.44389915
0000b0 27 9b 07 3f b1 61 fb 3e 44 41 e2 3e 58 42 e3 3e
       0.5297112 0.4909797 0.4419042 0.44386554
0000c0 af 2a d0 3e 94 cd 48 bf ad d3 28 3f 88 a1 86 3e
       0.40657565 -0.7843869 0.6594799 0.26295114
0000d0 c4 3d 85 be 30 46 b3 3f f3 6a 50 3e b2 17 86 3d
       -0.26023686 1.4005795 0.20353298 0.06547488
0000e0 e7 a6 d6 3e c9 3e ea 3e 17 83 0c bf 5a 87 1b bf
       0.4192421 0.45751026 -0.5488753 -0.60753405
0000f0 4f 4d 5a 3f f2 40 4c 3f 67 54 a9 3d 0c ef 28 3f
       0.85274214 0.797866 0.082680516 0.65989757

sequential/activation_4/Relu;sequential/batch_normalization_4/batchnorm/add_1 f4 [256]
000000 02 63 09 bf 65 63 42 3f 51 ca 8a bf 88 98 68 bd
       -0.536667 0.75932914 -1.0842992 -0.05678609
000010 98 10 b4 3f e4 92 33 be 8f 50 ff bd 70 2d 10 3f
       1.4067564 -0.17536503 -0.12466537 0.5631933
000020 98 3e cf 3f b4 27 bb 3f f1 cc f1 bc b7 f0 47 3f
       1.6190977 1.4621491 -0.029516669 0.78101677
000030 82 7f d6 bd 02 cc 61 bf db 33 a0 3e b1 88 95 bf
       -0.10473539 -0.88201916 0.31289563 -1.168234
000040 c4 0c bb 3f 0e 07 75 bf 2f fb 25 3f de a8 fa 3e
       1.4613271 -0.9571389 0.648364 0.4895696
000050 a4 a4 35 3f a7 15 c0 3d 49 c4 dc 3f 54 fa 05 3f
       0.70954347 0.0937913 1.7247401 0.52335095
000060 31 fb cd 3f 53 9c 30 3e e5 f8 d3 3f c2 dc c7 3e
       1.6092283 0.17247133 1.6560332 0.39035612
000070 1c c3 85 3f d1 f2 75 3f d9 43 cf 3f 4f ba ca 3f
       1.0450168 0.96073633 1.619258 1.5838107
000080 43 1e 98 3e 44 56 ae 3f 6e 4a 42 3f 34 85 c5 be
       0.29710588 1.3620076 0.7589482 -0.38578188
000090 e8 a6 86 3f 80 0f 39 3e cc fc 61 3e 09 f5 95 be
       1.0519686 0.18072319 0.2206909 -0.2928851
0000a0 d7 1e db 3e 75 83 45 3f d6 46 92 be 38 1f 88 3f
       0.42796966 0.7715371 -0.2856967 1.0634527
0000b0 63 d8 69 bc 7f e6 89 bf 27 41 5a bf 59 53 3c 3e
       -0.014272782 -1.0773467 -0.85255665 0.1839117
0000c0 88 1d fe 3e fb d1 1b be 1c 05 8b 3f a7 a3 88 be
       0.49631906 -0.1521682 1.0860934 -0.26687357
0000d0 83 f8 8c bd b1 ca d5 bd 4d 6f d1 3f 09 91 cb bf
       -0.06883337 -0.10439051 1.6362091 -1.5903636
0000e0 4f 20 43 bf c3 3e 47 3e 50 d5 ee bf 97 a6 03 40
       -0.76221174 0.19457535 -1.8658848 2.0570428
0000f0 16 04 95 3f 00 ff b6 bf a3 61 ae 3d e8 75 4b 3f
       1.1641872 -1.429657 0.085147165 0.79476786
000100 31 1c ca 3f 64 7c 84 bc eb 7e df 3e 05 b1 9c 3f
       1.5789853 -0.016172595 0.43651518 1.2241522
000110 8d 35 08 bf 64 71 94 bd 4b 61 59 3f 0e 70 d4 3f
       -0.5320671 -0.0724819 0.8491408 1.6596696
000120 3a 31 e2 3e df 2d 1e 3f 3c f7 eb 3e 9e fb 49 3e
       0.44178182 0.61788744 0.46087062 0.1972489
000130 ec 9f 63 3f 3a e2 57 bf c5 a3 8f 3f 50 0b ca be
       0.88915896 -0.8432957 1.1221853 -0.39461756
000140 8e e8 42 3f 20 b2 95 3f 34 29 11 3f 4b f3 29 bf
       0.761361 1.1694984 0.56703496 -0.6638686
000150 bb 29 ab 3f 95 3c 93 3f 57 0d 1f bf ee da 1a 3f
       1.337211 1.1502863 -0.6212973 0.6049031
000160 42 d3 d9 3d 1f 9e 43 3e 6a fa f8 3e 4a 52 96 3e
       0.10635997 0.19103287 0.4862855 0.29359657
000170 f1 9b 07 3e 71 d6 bb bf 86 cc 0d 40 85 b5 70 3f
       0.1324308 -1.4674817 2.2156081 0.94026977
000180 5b 99 f2 3e 26 03 27 be 92 d0 c9 3c a5 b9 a8 3f
       0.47382626 -0.16309795 0.024635587 1.3181654
000190 fc be 48 be ad a4 12 40 0f fd 0d 3f 94 15 41 be
       -0.19604105 2.291301 0.5546426 -0.18855888
0001a0 f4 42 85 3c 14 bf be 3f 41 08 22 3f 34 23 15 3f
       0.016267277 1.4902062 0.63293844 0.5825684
0001b0 ef 49 3b 3f 7e 7d b6 3f dc 7e 5c 3f 68 a5 b5 3e
       0.7315969 1.4257047 0.8613107 0.35477757
0001c0 23 97 8b 3f b9 c8 91 3d 91 ee 19 3f 88 a2 82 3f
       1.0905498 0.07118363 0.6012965 1.0205851
0001d0 dd c7 6b 3f 94 ad 44 be 8b 2c aa 3f 54 c7 11 3f
       0.9210184 -0.1920684 1.3294843 0.56944776
0001e0 45 fc 3b 3f ba cc 28 3f 76 bb 49 3f dd c4 3f 3f
       0.7343181 0.6593739 0.7880167 0.74909765
0001f0 0b 63 e0 3c 8e 02 12 be 11 9d a9 3f 74 da df bb
       0.027390977 -0.14258787 1.3251058 -0.0068314616
000200 0e f4 fd 3e 81 80 82 bf 22 83 2a 3f ab 07 9d 3f
       0.4960026 -1.0195466 0.6660634 1.2267965
000210 35 71 11 3e b3 17 2f 3f 2c 35 f6 3f fc 9f 9f 3f
       0.14203341 0.6839554 1.9234977 1.2470698
000220 02 42 66 3e f6 07 58 3f 8a c2 17 3e 17 b3 2c 3f
       0.22486117 0.8438715 0.14820305 0.6746077
000230 4f a9 d5 3e 2b 37 a7 3e ec dd 07 3e b4 37 84 be
       0.41730735 0.32659277 0.1326825 -0.25823748
000240 67 c8 77 3f e8 0f 3a bf 10 cd 15 3e 1a e0 c7 be
       0.96790165 -0.7268052 0.14629006 -0.39038163
000250 0f 21 ca 3e f7 60 3d bf a1 9e da be 5a 91 f0 3f
       0.39478347 -0.7397608 -0.4269915 1.8794358
000260 4a d9 65 3f c5 94 76 3f eb 2a c6 3f 20 f9 4f 3f
       0.8978468 0.96320754 1.5481848 0.8123951
000270 66 09 0b 3f 37 16 6a 3f c4 28 23 3e bd 0f 8f be
       0.54311216 0.9144015 0.1593352 -0.27941695
000280 a4 76 a3 3f 42 25 f9 3e c4 43 56 bf c7 9d c4 3f
       1.2770581 0.48661238 -0.8369715 1.536065
000290 3a cc 12 40 fe 86 0f 3e aa 10 69 3f ec c8 ea be
       2.293715 0.14016339 0.9104105 -0.45856416
0002a0 8d 6b 1f 3f bf bc 30 be 47 25 ee 3e c2 85 c2 3f
       0.62273484 -0.17259501 0.46512815 1.519707
0002b0 e3 1f 13 3b b3 6e ae 3e 72 c9 b3 3f 82 f9 c7 3f
       0.0022449426 0.34068832 1.4045851 1.5623019
0002c0 e9 ab c7 3f b0 da 37 bf 26 a6 60 3f 48 1b 2c be
       1.5599338 -0.71818066 0.8775352 -0.16807282
0002d0 1c 55 3d be ff bc b5 3e a6 0e 99 bd 39 d5 40 3f
       -0.18489498 0.35495755 -0.07473497 0.7532535
0002e0 f8 13 aa 3f 0c 56 71 3f 05 a0 9c be b1 0a e3 be
       1.3287344 0.9427192 -0.30590835 -0.44344094
0002f0 a3 47 04 bf f8 ab 3c 3f e8 6c d8 b9 4d 12 bf 3f
       -0.5167181 0.73699903 -0.00041279872 1.492746
000300 6e c2 ba 3f 21 73 be 3f b5 4b 67 3f 65 e8 43 bf
       1.4590585 1.4878885 0.90349895 -0.7652648
000310 e6 d3 b6 3f 04 b6 9b 3d c4 4f a0 3e 7f fd d6 bd
       1.4283416 0.07603076 0.31310856 -0.10497569
000320 c8 aa 01 3f c3 d3 d5 3f b2 f1 36 3e a8 08 0d be
       0.50651217 1.670525 0.17865637 -0.13772833
000330 9c 51 f9 3d 02 da 43 3f 02 a8 75 be 7c 01 80 3f
       0.12173769 0.7650453 -0.23989871 1.0000453
000340 f5 33 f4 3e 6d 52 86 3f c6 01 7e 3f b7 b4 aa 3f
       0.4769589 1.0493904 0.99221456 1.33364
000350 19 94 9e bf c8 36 27 3f 5c 87 d0 3e f5 83 84 3e
       -1.2388946 0.65317965 0.4072827 0.25881925
000360 f2 41 d5 bd b6 0a 99 3e e0 ed 98 bd 03 07 ec be
       -0.10412969 0.29890984 -0.07467246 -0.460991
000370 9c 5b a1 bd 20 af bc be 98 3b 5c bc 91 da ac 3f
       -0.07878801 -0.3685236 -0.013441943 1.3504201
000380 02 57 df 3e 32 03 b2 3f ee cb b4 bf e5 ad be 3e
       0.4362107 1.3907225 -1.4124734 0.37242046
000390 1d 9c 35 bf 71 0e a0 bf 8c 27 f2 be ab 9b 9f 3e
       -0.70941335 -1.2504407 -0.47295797 0.31173453
0003a0 e1 54 4c bd 51 de 8a be 50 13 b7 be 67 1d 88 3f
       -0.049885634 -0.2712274 -0.35756922 1.0633973
0003b0 90 fe bc 3e 3d 85 d8 3f 34 3d bd 3f f3 12 8d bf
       0.36912966 1.6915661 1.4784303 -1.1021408
0003c0 60 2f e0 3f 85 ce b5 3e a5 b7 89 3f c0 f9 68 3f
       1.7514458 0.35509124 1.0759169 0.9100609
0003d0 93 ca c0 3f b8 b3 e5 3f b6 6a 3a 40 42 30 cf bf
       1.5061821 1.7945471 2.912763 -1.6186602
0003e0 f2 42 3f 3f 7e 6c f8 be 50 5f 39 bf 2f 90 e2 3d
       0.74711525 -0.48520273 -0.7241106 0.11062657
0003f0 df 51 a2 be 85 a5 0c 3f 36 4b 0a 40 68 f9 aa 3f
       -0.31703088 0.5494006 2.1608405 1.3357363

sequential/batch_normalization_4/batchnorm/mul_1 i1 [256, 3136] scale=0.0004133259 zero_point=0
000000 d7 2f cd 0b 2c 1e 38 2c 22 3c 1d eb e9 c5 f8 f8
       -0.016946362 0.019426318 -0.02107962 0.004546585 0.01818634 0.012399777 0.023146251 0.01818634 0.014053081 0.024799554 0.011986451 -0.008679844 -0.009506496 -0.024386229 -0.0033066073 -0.0033066073
000010 16 31 1d cd 30 d8 10 12 20 c9 e8 0c cd e0 26 b8
       0.00909317 0.02025297 0.011986451 -0.02107962 0.019839644 -0.016533036 0.0066132145 0.007439866 0.013226429 -0.022732925 -0.009919822 0.004959911 -0.02107962 -0.013226429 0.015706385 -0.029759465
000020 d1 ee 32 29 30 1d 22 07 e2 f9 bf 06 e5 de c4 d8
       -0.019426318 -0.007439866 0.020666296 0.016946362 0.019839644 0.011986451 0.014053081 0.0028932814 -0.012399777 -0.0028932814 -0.026866185 0.0024799556 -0.011159799 -0.014053081 -0.024799554 -0.016533036
000030 30 e5 f5 18 0a fd ed ee 07 02 c6 df 2e 41 e4 35
       0.019839644 -0.011159799 -0.004546585 0.009919822 0.004133259 -0.0012399778 -0.007853192 -0.007439866 0.0028932814 0.0008266518 -0.023972902 -0.013639755 0.019012991 0.026866185 -0.011573126 0.021906273
000040 1f f3 ec f7 ce 27 1b 0a 2b e5 2d c7 42 ce ef bd
       0.012813103 -0.0053732367 -0.008266518 -0.003719933 -0.020666296 0.016119711 0.011159799 0.004133259 0.017773014 -0.011159799 0.018599667 -0.023559576 0.02727951 -0.020666296 -0.0070265406 -0.027692836
000050 d9 ba e1 13 e3 30 f5 2e 21 f3 d4 19 e3 e6 d0 dd
       -0.016119711 -0.028932814 -0.012813103 0.007853192 -0.011986451 0.019839644 -0.004546585 0.019012991 0.013639755 -0.0053732367 -0.01818634 0.010333148 -0.011986451 -0.010746473 -0.019839644 -0.014466407
000060 2a 32 e3 0e c1 fc 44 e6 0a 15 b7 cf e5 55 22 24
       0.017359689 0.020666296 -0.011986451 0.005786563 -0.026039531 -0.0016533036 0.028106162 -0.010746473 0.004133259 0.008679844 -0.030172791 -0.02025297 -0.011159799 0.035132702 0.014053081 0.014879732
000070 d2 0b ff de f5 fd 21 cf 25 cf 44 fc f9 0c f4 f8
       -0.019012991 0.004546585 -0.0004133259 -0.014053081 -0.004546585 -0.0012399778 0.013639755 -0.02025297 0.015293059 -0.02025297 0.028106162 -0.0016533036 -0.0028932814 0.004959911 -0.004959911 -0.0033066073
000080 44 00 1c ca 05 f8 ee 2a 39 eb fb 19 3d f5 36 db
       0.028106162 0.0 0.011573126 -0.022319598 0.0020666295 -0.0033066073 -0.007439866 0.017359689 0.023559576 -0.008679844 -0.0020666295 0.010333148 0.02521288 -0.004546585 0.022319598 -0.015293059
000090 36 c2 13 ed d6 12 31 28 2f 10 f9 c6 2e f8 e2 ba
       0.022319598 -0.025626207 0.007853192 -0.007853192 -0.017359689 0.007439866 0.02025297 0.016533036 0.019426318 0.0066132145 -0.0028932814 -0.023972902 0.019012991 -0.0033066073 -0.012399777 -0.028932814
0000a0 0c e0 0f ef dd 28 15 cd 08 2e 05 c8 01 eb 23 d4
       0.004959911 -0.013226429 0.0061998884 -0.0070265406 -0.014466407 0.016533036 0.008679844 -0.02107962 0.0033066073 0.019012991 0.0020666295 -0.023146251 0.0004133259 -0.008679844 0.014466407 -0.01818634
0000b0 a7 f1 fc c2 1c ca cb bf fc 0f 0b 1d f7 2b 28 19
       -0.036786005 -0.0061998884 -0.0016533036 -0.025626207 0.011573126 -0.022319598 -0.021906273 -0.026866185 -0.0016533036 0.0061998884 0.004546585 0.011986451 -0.003719933 0.017773014 0.016533036 0.010333148
0000c0 44 f3 21 18 f8 fb 33 e4 d7 ce f6 24 41 39 07 09
       0.028106162 -0.0053732367 0.013639755 0.009919822 -0.0033066073 -0.0020666295 0.02107962 -0.011573126 -0.016946362 -0.020666296 -0.004133259 0.014879732 0.026866185 0.023559576 0.0028932814 0.003719933
0000d0 23 32 00 d7 08 26 0c c4 0b e7 24 dc e3 e2 ec c5
       0.014466407 0.020666296 0.0 -0.016946362 0.0033066073 0.015706385 0.004959911 -0.024799554 0.004546585 -0.010333148 0.014879732 -0.014879732 -0.011986451 -0.012399777 -0.008266518 -0.024386229
0000e0 0a f8 08 c5 f9 e8 cd 00 08 30 e4 11 08 1f fb d3
       0.004133259 -0.0033066073 0.0033066073 -0.024386229 -0.0028932814 -0.009919822 -0.02107962 0.0 0.0033066073 0.019839644 -0.011573126 0.0070265406 0.0033066073 0.012813103 -0.0020666295 -0.018599667
0000f0 cd d1 dd 2c ee 01 fe 03 e2 1a c7 03 de f3 d9 cd
       -0.02107962 -0.019426318 -0.014466407 0.01818634 -0.007439866 0.0004133259 -0.0008266518 0.0012399778 -0.012399777 0.010746473 -0.023559576 0.0012399778 -0.014053081 -0.0053732367 -0.016119711 -0.02107962

sequential/conv2d_1/Conv2D i1 [32, 5, 5, 32]
000000 18 a1 5b d7 09 c3 5e a7 04 24 3a c3 5f d1 34 b6
       24 -95 91 -41 9 -61 94 -89 4 36 58 -61 95 -47 52 -74
000010 0f 0a 97 b6 2c c7 50 37 fb e7 2e 28 45 d1 46 a2
       15 10 -105 -74 44 -57 80 55 -5 -25 46 40 69 -47 70 -94
000020 44 4f dd 21 a8 a7 11 c9 2d e6 af 1b b0 3e de c7
       68 79 -35 33 -88 -89 17 -55 45 -26 -81 27 -80 62 -34 -57
000030 02 a5 fa ea 2d 53 eb a2 c4 59 09 f9 db 0c 30 31
       2 -91 -6 -22 45 83 -21 -94 -60 89 9 -7 -37 12 48 49
000040 f5 d5 c5 db 4e 1a ff 9f 9f 35 2a e9 aa ac 62 58
       -11 -43 -59 -37 78 26 -1 -97 -97 53 42 -23 -86 -84 98 88
000050 b9 30 2a c4 b4 b2 fb d6 a0 f0 e7 95 a5 09 e9 f2
       -71 48 42 -60 -76 -78 -5 -42 -96 -16 -25 -107 -91 9 -23 -14
000060 d3 1a aa 22 b3 2c c7 a5 b8 4b 58 c4 e9 1a f0 b2
       -45 26 -86 34 -77 44 -57 -91 -72 75 88 -60 -23 26 -16 -78
000070 0f ed 28 2a 24 dd 33 48 b3 de e4 05 c0 33 e5 44
       15 -19 40 42 36 -35 51 72 -77 -34 -28 5 -64 51 -27 68
000080 5b 16 cb 97 f6 c2 ef 22 c5 33 ed 94 40 81 a4 39
       91 22 -53 -105 -10 -62 -17 34 -59 51 -19 -108 64 -127 -92 57
000090 31 47 b3 8e d7 0e 56 d0 08 23 2c 0d e5 dd 2a 43
       49 71 -77 -114 -41 14 86 -48 8 35 44 13 -27 -35 42 67
0000a0 5d 55 38 ec c5 aa ff d7 de d6 b4 32 28 cc 40 0d
       93 85 56 -20 -59 -86 -1 -41 -34 -42 -76 50 40 -52 64 13
0000b0 16 cb db 92 ca fa a9 bb 49 e9 0d 21 5f 43 53 b8
       22 -53 -37 -110 -54 -6 -87 -69 73 -23 13 33 95 67 83 -72
0000c0 cc 51 36 d7 d7 b1 5a 19 26 68 f1 2d 55 97 f3 43
       -52 81 54 -41 -41 -79 90 25 38 104 -15 45 85 -105 -13 67
0000d0 27 c0 33 4c 06 46 f7 0a 9a 38 e1 f9 38 9e bd c5
       39 -64 51 76 6 70 -9 10 -102 56 -31 -7 56 -98 -67 -59
0000e0 ef de 9c 99 27 53 ce b3 1e 47 00 0d 0a ef 5b 95
       -17 -34 -100 -103 39 83 -50 -77 30 71 0 13 10 -17 91 -107
0000f0 9e 90 34 14 da f2 a6 61 3d 45 44 64 33 18 99 ab
       -98 -112 52 20 -38 -14 -90 97 61 69 68 100 51 24 -103 -85

sequential/conv2d_2/Conv2D i1 [64, 3, 3, 32]
000000 db 93 b7 b7 14 91 48 30 63 2a 12 60 b2 34 10 02
       -37 -109 -73 -73 20 -111 72 48 99 42 18 96 -78 52 16 2
000010 43 45 b1 a8 4a b8 fc 1b 47 15 4b da e9 c6 c7 eb
       67 69 -79 -88 74 -72 -4 27 71 21 75 -38 -23 -58 -57 -21
000020 b8 df ba 81 1e 0d 8e d8 eb e1 11 22 8f 0b cb ec
       -72 -33 -70 -127 30 13 -114 -40 -21 -31 17 34 -113 11 -53 -20
000030 0a 18 a9 21 be b3 96 d5 44 a0 be 30 35 5e b9 ca
       10 24 -87 33 -66 -77 -106 -43 68 -96 -66 48 53 94 -71 -54
000040 e3 a0 05 5b ef c7 88 9e 48 f9 fe d4 48 38 d6 54
       -29 -96 5 91 -17 -57 -120 -98 72 -7 -2 -44 72 56 -42 84
000050 b2 0e a0 8a 3f 3d 31 50 96 db bb af 1d 4e 9e 3d
       -78 14 -96 -118 63 61 49 80 -106 -37 -69 -81 29 78 -98 61
000060 c1 83 0f 16 dc e9 b6 e6 4e 07 bc 6b 4f ca a2 3a
       -63 -125 15 22 -36 -23 -74 -26 78 7 -68 107 79 -54 -94 58
000070 24 fa 4b d0 b8 11 a6 fb ff b3 9e c4 13 f3 e5 2c
       36 -6 75 -48 -72 17 -90 -5 -1 -77 -98 -60 19 -13 -27 44
000080 0c e8 f6 f7 5c 4a 8a 10 42 09 d4 c0 e7 b9 0f 1e
       12 -24 -10 -9 92 74 -118 16 66 9 -44 -64 -25 -71 15 30
000090 8d 38 ad cd 1b de c3 a5 b0 48 18 be 1c 4f fa fc
       -115 56 -83 -51 27 -34 -61 -91 -80 72 24 -66 28 79 -6 -4
0000a0 c1 a7 4d 03 dd 19 0c 49 ca 02 32 e4 3b 47 16 bb
       -63 -89 77 3 -35 25 12 73 -54 2 50 -28 59 71 22 -69
0000b0 20 92 b6 43 50 04 aa 64 d8 62 e0 fb f1 c6 3b a9
       32 -110 -74 67 80 4 -86 100 -40 98 -32 -5 -15 -58 59 -87
0000c0 c8 c9 04 32 ef 65 2a c1 65 d2 3b c4 3f e3 30 cd
       -56 -55 4 50 -17 101 42 -63 101 -46 59 -60 63 -29 48 -51
0000d0 09 a0 1a 02 94 48 40 5e f5 26 31 97 8e 48 fb a9
       9 -96 26 2 -108 72 64 94 -11 38 49 -105 -114 72 -5 -87
0000e0 df a0 ca c5 4c 06 09 cf 0d 66 12 a4 11 5a f6 29
       -33 -96 -54 -59 76 6 9 -49 13 102 18 -92 17 90 -10 41
0000f0 91 ad 50 3e a5 99 e7 df 9f 64 ca d0 12 f8 d9 55
       -111 -83 80 62 -91 -103 -25 -33 -97 100 -54 -48 18 -8 -39 85

sequential/conv2d_3/Conv2D i1 [64, 3, 3, 64]
000000 bb cc a6 c1 b7 da ae 59 e9 47 58 34 b8 d9 b4 e0
       -69 -52 -90 -63 -73 -38 -82 89 -23 71 88 52 -72 -39 -76 -32
000010 fc 75 eb 44 45 29 f5 fc d9 82 8a 3d 54 3e 5c 6d
       -4 117 -21 68 69 41 -11 -4 -39 -126 -118 61 84 62 92 109
000020 f4 b6 e1 35 c4 3d 39 fb 63 a3 16 13 d8 39 d8 2f
       -12 -74 -31 53 -60 61 57 -5 99 -93 22 19 -40 57 -40 47
000030 49 4b aa 30 2b ef 02 57 d0 a2 ce 4e 4d a1 cf 44
       73 75 -86 48 43 -17 2 87 -48 -94 -50 78 77 -95 -49 68
000040 e4 10 bd 00 54 e4 ee 0a 1f f9 28 f5 c4 b1 f0 c2
       -28 16 -67 0 84 -28 -18 10 31 -7 40 -11 -60 -79 -16 -62
000050 3e 5d c3 08 ef ea 12 97 21 d3 ac ff 2d c8 f6 4e
       62 93 -61 8 -17 -22 18 -105 33 -45 -84 -1 45 -56 -10 78
000060 25 ac d0 ba 41 27 4a db 24 f1 23 ce ae f8 e1 9d
       37 -84 -48 -70 65 39 74 -37 36 -15 35 -50 -82 -8 -31 -99
000070 ff e2 bd c1 4e 11 bd 02 59 f2 66 02 ff 3a 09 b8
       -1 -30 -67 -63 78 17 -67 2 89 -14 102 2 -1 58 9 -72
000080 69 ab 3b ae ad 44 1b 5b 38 62 ad 4b 04 64 68 ad
       105 -85 59 -82 -83 68 27 91 56 98 -83 75 4 100 104 -83
000090 9a 4c c4 9c ee a9 22 62 d4 bc 20 bb c5 41 53 30
       -102 76 -60 -100 -18 -87 34 98 -44 -68 32 -69 -59 65 83 48
0000a0 4e 9e f4 fc 4e d8 fc 45 68 df 63 e9 e0 9e c1 44
       78 -98 -12 -4 78 -40 -4 69 104 -33 99 -23 -32 -98 -63 68
0000b0 0c c3 ce 35 50 42 a6 ee c6 11 fb ad ce e0 74 4a
       12 -61 -50 53 80 66 -90 -18 -58 17 -5 -83 -50 -32 116 74
0000c0 2d 22 0d ee ad 5a 0e 2e 1c d2 10 31 f6 04 c7 a2
       45 34 13 -18 -83 90 14 46 28 -46 16 49 -10 4 -57 -94
0000d0 eb 05 b5 50 0b be be ff a6 32 e6 31 d4 10 c2 bd
       -21 5 -75 80 11 -66 -66 -1 -90 50 -26 49 -44 16 -62 -67
0000e0 88 e5 df 51 e1 1c 1c c5 fa bc 31 08 5f 9d f8 42
       -120 -27 -33 81 -31 28 28 -59 -6 -68 49 8 95 -99 -8 66
0000f0 c1 d0 fb e8 4c 3a c7 af d4 fa 3e 0f b3 c7 09 0c
       -63 -48 -5 -24 76 58 -57 -81 -44 -6 62 15 -77 -57 9 12

sequential/dense_1/MatMul i1 [10, 256] scale=0.0017039308 zero_point=0
000000 3a ad 62 ad d3 f7 1f 28 55 3d 0c 3d dd a9 a4 f5
       0.09882799 -0.14142625 0.16698521 -0.14142625 -0.07667688 -0.015335377 0.052821856 0.06815723 0.14483412 0.10393978 0.020447168 0.10393978 -0.059637576 -0.14824198 -0.15676163 -0.01874324
000010 43 cc 50 b4 0d 35 16 e1 67 66 f4 d7 df 5a 5f 1c
       0.11416336 -0.0886044 0.13631447 -0.12949874 0.0221511 0.09030833 0.03748648 -0.052821856 0.17550488 0.17380095 -0.020447168 -0.06986116 -0.056229714 0.15335377 0.16187343 0.04771006
000020 cf 29 58 d9 4c 09 e5 c9 e5 49 4f e9 ef 5c e9 a9
       -0.08349261 0.06986116 0.14994591 -0.0664533 0.12949874 0.015335377 -0.046006132 -0.0937162 -0.046006132 0.124386944 0.13461053 -0.039190408 -0.028966824 0.15676163 -0.039190408 -0.14824198
000030 b7 c9 fd ab e4 ed 65 db 55 04 1e 92 c1 97 d3 97
       -0.124386944 -0.0937162 -0.005111792 -0.14483412 -0.04771006 -0.032374684 0.17209701 -0.06304544 0.14483412 0.006815723 0.051117923 -0.1874324 -0.10734764 -0.17891273 -0.07667688 -0.17891273
000040 5e ef cb ac 4a 20 2f 64 ea c6 f5 f8 ce ac 9f 99
       0.1601695 -0.028966824 -0.09030833 -0.14313018 0.12609088 0.054525785 0.08008475 0.17039308 -0.03748648 -0.09882799 -0.01874324 -0.013631446 -0.08519654 -0.14313018 -0.16528128 -0.17550488
000050 92 5a a7 39 20 d2 16 b7 f0 a1 ea ad ec a2 27 02
       -0.1874324 0.15335377 -0.15164983 0.097124055 0.054525785 -0.078380816 0.03748648 -0.124386944 -0.027262893 -0.16187343 -0.03748648 -0.14142625 -0.034078617 -0.1601695 0.0664533 0.0034078616
000060 4a 5f 33 b6 bf f0 11 29 14 d7 f5 02 b9 14 aa 03
       0.12609088 0.16187343 0.08690047 -0.12609088 -0.1107555 -0.027262893 0.028966824 0.06986116 0.034078617 -0.06986116 -0.01874324 0.0034078616 -0.120979086 0.034078617 -0.14653805 0.005111792
000070 18 06 63 e2 d2 46 cf a1 5e 48 dc 46 53 b4 5f 37
       0.040894337 0.010223584 0.16868915 -0.051117923 -0.078380816 0.11927515 -0.08349261 -0.16187343 0.1601695 0.12268302 -0.06134151 0.11927515 0.14142625 -0.12949874 0.16187343 0.0937162
000080 64 f3 3c 4c ef 52 0b 98 59 08 b0 30 06 af a4 a0
       0.17039308 -0.0221511 0.102235846 0.12949874 -0.028966824 0.13972232 0.01874324 -0.1772088 0.15164983 0.013631446 -0.13631447 0.081788674 0.010223584 -0.1380184 -0.15676163 -0.16357735
000090 e4 90 5e a3 f4 ba 00 23 3b f1 da bb ba d4 12 0a
       -0.04771006 -0.19084024 0.1601695 -0.15846556 -0.020447168 -0.11927515 0.0 0.059637576 0.10053191 -0.025558962 -0.06474937 -0.11757123 -0.11927515 -0.07497296 0.030670755 0.017039308
0000a0 b8 49 ba 0c cd df 34 d2 12 42 b1 63 36 4b c9 01
       -0.12268302 0.124386944 -0.11927515 0.020447168 -0.08690047 -0.056229714 0.0886044 -0.078380816 0.030670755 0.11245943 -0.13461053 0.16868915 0.092012264 0.1277948 -0.0937162 0.0017039308
0000b0 a4 1f 62 aa 97 99 c2 a6 ae a4 f2 b4 e9 5f 39 09
       -0.15676163 0.052821856 0.16698521 -0.14653805 -0.17891273 -0.17550488 -0.10564371 -0.15335377 -0.13972232 -0.15676163 -0.02385503 -0.12949874 -0.039190408 0.16187343 0.097124055 0.015335377
0000c0 b1 aa c1 b7 68 43 d0 ac 50 e3 2d fa b0 fb de 41
       -0.13461053 -0.14653805 -0.10734764 -0.124386944 0.1772088 0.11416336 -0.081788674 -0.14313018 0.13631447 -0.049413994 0.07667688 -0.010223584 -0.13631447 -0.008519654 -0.057933647 0.1107555
0000d0 ec ef c3 4d d8 6b ac 5c 39 b4 3d cf 9a cf 5e 21
       -0.034078617 -0.028966824 -0.10393978 0.13120267 -0.06815723 0.1823206 -0.14313018 0.15676163 0.097124055 -0.12949874 0.10393978 -0.08349261 -0.17380095 -0.08349261 0.1601695 0.056229714
0000e0 62 cf a3 99 13 38 40 87 a3 af e4 a1 22 d7 67 a6
       0.16698521 -0.08349261 -0.15846556 -0.17550488 0.032374684 0.09542012 0.10905157 -0.20617563 -0.15846556 -0.1380184 -0.04771006 -0.16187343 0.057933647 -0.06986116 0.17550488 -0.15335377
0000f0 8f e7 c4 0a c5 24 ad c3 15 58 1c c2 e5 5b ec c0
       -0.19254418 -0.04259827 -0.102235846 0.017039308 -0.10053191 0.06134151 -0.14142625 -0.10393978 0.035782546 0.14994591 0.04771006 -0.10564371 -0.046006132 0.1550577 -0.034078617 -0.10905157
